encoder.pth (torch, 3407 bytes, 7 tensors)

encoder.0.weight f4 [6, 12]
0	0x3798a2f3	1.8195691e-05
1	0xb60c0cc8	-2.0869065e-06
2	0xb6e85925	-6.9245166e-06
3	0xb832213f	-4.246947e-05
4	0xb83c8aac	-4.495184e-05
5	0xb8532665	-5.0342078e-05
6	0xb8802800	-6.110966e-05
7	0xb894c624	-7.0940965e-05
8	0xb8b02ec7	-8.401047e-05
9	0xb8cee6d3	-9.86584e-05
10	0xb8f50b6a	-0.000116846364
11	0xb9010055	-0.00012302522
12	0x3ec9ec09	0.39437893
13	0xbd868a5f	-0.06569361
14	0xbdc7b7d6	-0.09751861
15	0x3e89ac5c	0.26889312
16	0x3eae8ee3	0.3409339
17	0x3ee9bf1c	0.45653617
18	0xbcb6c23e	-0.022309419
19	0x3e9a55db	0.30143628
20	0x3e9e5ecc	0.309317
21	0x3d4abb07	0.04949477
22	0x3e8bf114	0.27332366
23	0x3e8a4f80	0.2701378
24	0xbb24e078	-0.0025158208
25	0xbd824c3d	-0.063621975
26	0xbd496899	-0.049172018
27	0x3e356fa9	0.17718376
28	0xbb24e245	-0.0025159281
29	0x3ae73c4e	0.0017641874
30	0x3e4526ac	0.19253033
31	0xbe467198	-0.1937927
32	0xbcece8ab	-0.028919538
33	0xbc4adac5	-0.01238126
34	0xbd0953ee	-0.033527307
35	0xbc6edf57	-0.014579616
36	0x3b8285db	0.003983242
37	0x3e3d8b61	0.185102
38	0x3ea992d6	0.3311984
39	0x3ec9275a	0.39287835
40	0x3e6ad1f2	0.2293165
41	0x3e9c59ea	0.3053735
42	0x3ec34cfb	0.3814467
43	0x3ed94a8e	0.42439693
44	0x3c24867f	0.010041832
45	0x3e08b498	0.13350141
46	0x3ee4f9df	0.44721887
47	0x3e828f24	0.25499833
48	0x800001dc	-6.67e-43
49	0xa300402d	-6.952484e-18
50	0xb03c10f8	-6.8418116e-10
51	0x995b7a65	-1.1346752e-23
52	0x000000b1	2.48e-43
53	0xad37104c	-1.0405964e-11
54	0x2c2eef27	2.4859643e-12
55	0x8000000d	-1.8e-44
56	0x1520a295	3.2439997e-26
57	0x2d099de4	7.822607e-12
58	0x80000497	-1.647e-42
59	0x80000086	-1.88e-43
60	0x3e1319e3	0.14365344
61	0x3dfe1931	0.12407149
62	0x3e0965fc	0.1341781
63	0x3de02d91	0.10946191
64	0x3e11eae4	0.1424976
65	0x3df514d5	0.11966864
66	0x3e123b70	0.14280486
67	0x3e5ab7c2	0.2135916
68	0x3dd6a2b2	0.104802504
69	0x3e816529	0.25272492
70	0x3e0d5ad8	0.13804185
71	0x3da75c46	0.08171897

encoder.0.bias f4 [6]
0	0xba45cc39	-0.0007545385
1	0xbdae6485	-0.08515266
2	0x3cbdf3c6	0.02318753
3	0x3eb54b3f	0.3540897
4	0x0000001c	3.9e-44
5	0x3da0e85d	0.0785682

encoder.2.weight f4 [1, 6]
0	0xb8975e94	-7.217858e-05
1	0x3e4aa03b	0.19787686
2	0xb5e6917b	-1.7178676e-06
3	0x3f143430	0.5789213
4	0xb80e5883	-3.393787e-05
5	0x3e1325e2	0.1436992

decoder.0.weight f4 [6, 1]
0	0x3f6ca273	0.9243538
1	0xbe2e5500	-0.17024612
2	0xbd203d30	-0.039120853
3	0x3efb4b41	0.49080852
4	0xbe22d3ae	-0.15901062
5	0x3f37be5e	0.7177485

decoder.0.bias f4 [6]
0	0xbeb45b2d	-0.35225812
1	0x3e88e2d2	0.2673555
2	0x3c0c851b	0.008576657
3	0x3f8f48b7	1.1194066
4	0x3d0aba59	0.03386912
5	0x3d4b2179	0.04959247

decoder.2.weight f4 [12, 6]
0	0x3ed4351e	0.41446775
1	0x0e1113ae	1.7882105e-30
2	0x00000091	2.03e-43
3	0xbe1d6580	-0.1537075
4	0xa8d47e21	-2.3591428e-14
5	0x3dedaa34	0.11604729
6	0xbdeedafa	-0.1166286
7	0x80000288	-9.08e-43
8	0x0000031f	1.12e-42
9	0x3da5f71c	0.08103773
10	0x000001b4	6.11e-43
11	0x3f2354bb	0.63801163
12	0x3e5c87c7	0.2153617
13	0x82884a5f	-2.002609e-37
14	0x80000211	-7.41e-43
15	0x3ea928b5	0.3303887
16	0xb89cec08	-7.482624e-05
17	0x3d2683ff	0.040653225
18	0x3e048b94	0.1294387
19	0x00000217	7.5e-43
20	0x3535e216	6.775675e-07
21	0x3ed91abf	0.42403218
22	0x0000003e	8.7e-44
23	0x3db54367	0.088507466
24	0x3e2f5815	0.17123444
25	0x302561b4	6.0165495e-10
26	0xb7354717	-1.0804993e-05
27	0x3e943a49	0.28950718
28	0x000001f6	7.03e-43
29	0x3e0438b1	0.12912251
30	0x3e7e47a2	0.24832013
31	0x80000185	-5.45e-43
32	0x800000dc	-3.08e-43
33	0xbe23f4ad	-0.16011305
34	0x370fa2ed	8.561398e-06
35	0x3ead9916	0.33905858
36	0xbc9ac647	-0.018893374
37	0x105da573	4.3712022e-29
38	0x000000ec	3.31e-43
39	0x3e58b29d	0.21161886
40	0xac2a4cc4	-2.4201066e-12
41	0x3edb92bb	0.42885384
42	0x3ee3f1ce	0.4452042
43	0x000000e1	3.15e-43
44	0x34a77ffe	3.11993e-07
45	0xbe172841	-0.1476145
46	0x2f58f8d0	1.9733482e-10
47	0x3da18276	0.078862116
48	0xbe01e7c1	-0.12686063
49	0x3378f283	5.7962563e-08
50	0x368d07c5	4.203032e-06
51	0x3f15c9ea	0.5851122
52	0xb818b27c	-3.640585e-05
53	0x3ea08945	0.31354728
54	0x3e4b4697	0.19851147
55	0x0000015a	4.85e-43
56	0xb8d61f40	-0.00010210136
57	0x3e07996c	0.1324212
58	0xb213cd3a	-8.603189e-09
59	0x3e54aa0d	0.20767994
60	0x3f078214	0.5293286
61	0xaccca72f	-5.81659e-12
62	0xb78d8286	-1.686929e-05
63	0xbe4068d8	-0.18789995
64	0xb85a4bcb	-5.2045838e-05
65	0x3b1ac97c	0.002361863
66	0x3e85ef17	0.26158974
67	0x310519a0	1.9368613e-09
68	0x3848aecc	4.7846508e-05
69	0x3e51fd80	0.20506859
70	0x000001e2	6.75e-43
71	0x3d9e0aed	0.07716928

decoder.2.bias f4 [12]
0	0x3db55825	0.08854703
1	0x3f119592	0.5686885
2	0x3f1150f8	0.56764174
3	0x3ed1ffb5	0.410154
4	0x3d730e0a	0.05933956
5	0x3e9ae120	0.30249882
6	0x3e65d60f	0.22444938
7	0x3ee28f8c	0.44250143
8	0x3e636733	0.22207336
9	0xbe4625a0	-0.1935029
10	0x3de724b0	0.112862945
11	0x3ed66a03	0.41877756
